ch08-Machine-learning/file_theta.npy (npy, 25888 bytes, 1 tensors)

array f8 [3220]
-0.32436892875859596 0.0 0.5027412829232911 -0.5707405497415893 0.7491507732420583 -0.44931024885755855 -0.029342077575309707 -0.23611290176540792
-0.8346456378337357 -0.25279730717042387 -0.3239824747017914 0.21880833618544915 0.20350493519043686 0.8812994779854116 0.668698144475296 -0.37254999927159066
0.05612537958722109 -0.11327698447967735 -0.056004063052253035 0.1972247551979249 0.5578848324455116 0.2145400728655561 -0.5386192403039066 -0.8883855223975895
0.546771082717076 0.2422269304560188 -0.33031559039070424 0.1546801646358028 0.3092957480849734 -0.698576358829155 0.13227540007753982 -0.7076103452921626
0.5978288634947434 0.5386736057251151 -0.4395710363676871 0.4003771488260088 0.6496454094433965 0.17235383547895544 -0.19825664312199154 -0.1552790013957171
-1.4762799545308456 1.2384407721342063 -0.41307472302777953 0.0 0.5022367072610436 -0.3612327454125243 -0.7570280640101247 -0.11455652382799125
0.12299204212224715 -0.3174084686158508 -0.5513945283616254 -0.07749056903720088 -1.159522429474964 -0.401963019391348 -0.4328915404834735 0.0
0.4072705295940071 -1.0508020232740436 0.697364900865121 0.12821041649020878 0.16457311163465627 -0.47844885037151325 -0.49785039941806 -0.7466357420435802
0.4112707616342044 -0.3418647553548664 -0.04105871863022677 0.10466071225040835 0.08609667881805705 0.04203225486513058 -0.4002277548845283 -0.387030734181956
0.14329943042499937 0.4622668474815269 0.10680953605129005 0.6295479862196831 -0.025692468993165105 -0.189917660030459 0.43107230994941115 -0.8938841700495085
0.46922634670186447 -0.2809052843435525 -0.2002194043951744 -0.1115089134102031 0.0 -1.038118349817447 -0.29104914981685565 -0.0535602134025204
-0.24549453132164564 -0.915983811890533 -0.6377862231970933 -0.3915246130108865 -0.2746519753679412 0.3702295061650027 -0.9724697743138909 -0.38465296741275984
-0.03131215588299528 -0.23713032214129645 -0.26203282296982816 -0.545124070552736 -0.3059263342170289 -0.12035528048534862 -1.6899998998696035 -0.5618939399447158
0.3954003078909552 2.576616830231628 -0.33570238179689305 0.45497641904421326 0.08766750417546465 -0.6352307359588107 -0.12908859790879407 -0.37387524306233527
0.034360547672692934 0.7464140636098286 0.004109989413230958 -0.35486243036947535 1.010346033087831 -0.0727169762625403 0.688029010755267 -0.01324306564506406
-0.07684016358332822 0.15916972519691355 0.5855564490689723 -0.34993000949130615 0.06058532350173618 -0.21305183478265 -0.4641526002722364 1.053620987150765
-0.3808906307796835 -0.4795790656843623 0.009894822690364413 -1.0855605245506792 -0.5132504227482042 -0.6665185731397023 0.722352083226468 0.9299922275405611
0.2505383063120893 0.16163501544825362 1.083999123691418 1.613841678821385 -0.629455949548913 -0.44413254394691754 -0.0962882118300352 0.4114855291859263
-1.4649007431719625 0.12113788169955594 -0.33371698979904296 0.4818673766586288 0.0 -0.05643257896730552 0.3076711518140051 -0.09596616629528412
0.7142952586572024 -0.11309075962524086 -0.3381932004601586 0.4888747234613502 0.23027112434566674 -0.06254173735041675 -0.28560437475098105 0.18376345427802027
-0.581612355746946 -0.08996743341713864 -0.9455256864793735 0.018449550988086056 0.5033172117380478 1.4790700749940247 1.882932983469481 -1.5042935187026847
0.21254585778335788 -0.1450613588019388 -0.4395599315809947 1.6096442897987393 0.5942371777261707 0.21647167116923316 -0.34088532280240164 0.8692641815688609
0.13956722315265266 0.4115008557362761 -0.5661279367298816 -2.3650770280270352 -0.191340943829646 0.3360541441300147 -0.7942985100296099 -0.9782674994366645
-2.056024369797769 -0.5979847604938731 -0.4081216082180295 0.05158560445548845 0.7380066129560874 -1.0736319649849526 -0.41555010629977085 0.09540015017469562
-0.10796878589838499 0.020614556649145844 -0.7455392188824843 -1.9146342104873246 -0.7868645103760166 -0.5663308578350851 0.9161057638188331 -0.15123575615105864
-0.3169602144815463 -0.518664458588002 -1.8920799319631603 -0.23514302120153413 0.1703464392376824 -0.39318596114034843 0.19965437724304858 0.3019859149743955
0.04932889265446307 -0.29179265921413017 -0.6677703175410751 1.0132829976093776 0.6063907109005374 0.28864627454235686 0.26139809027446287 0.6758230404766818
-0.4997233005507705 0.2955743066832275 0.15332124404269248 0.6671712714927359 0.3857458089486686 -0.3770051204528512 0.5355966751447314 0.08690272270526574
1.347316490678349 -0.10219807041336662 -0.5371751631356582 0.5092934281218029 1.0231411279831744 -0.3224646531352136 0.17696164375626178 -0.7218592518008593
-0.7975589369712951 0.4992883167043033 1.3283021673276338 -0.17614990435698719 -1.5894893032155104 -1.1018369918435331 0.918505473773053 -0.012911304702196766
1.157769048252194 -0.41946136302918247 0.027161750359469092 0.16195720466584845 0.4563364602320343 0.7052039426873944 1.2576082364532641 0.06170213848420268
-0.5062331126900516 1.0336057548354858 0.14477259169326723 -0.014429545608709897 0.46222897421599995 0.0942848104941101 -0.17043205365820085 -0.34542375463218106
00000000: 8fd4 36e5 75c2 d4bf 0000 0000 0000 0000
00000010: d625 10e3 7416 e03f 9b84 74af 8143 e2bf
00000020: c920 db0a 0bf9 e73f 1674 26c6 7fc1 dcbf
00000030: 3fa2 547e d90b 9ebf cd7f 9f93 f238 cebf
00000040: acd6 c7c4 6ab5 eabf e715 b4c1 d42d d0bf
00000050: dc90 54fd 20bc d4bf 581c 015c e901 cc3f
00000060: e3d7 9b20 730c ca3f 21bc 7df6 9a33 ec3f
00000070: 5a5a ada6 f965 e53f 79c3 bff3 dbd7 d7bf
00000080: 91fb 9a3b 77bc ac3f 86ce ba6f b8ff bcbf
00000090: 114e 8186 90ac acbf 5fb2 c428 a93e c93f
000000a0: 9336 c94a 31da e13f 6ccb 5192 0c76 cb3f
000000b0: ab40 c36a 5e3c e1bf 2f00 9e79 a76d ecbf
000000c0: 2463 d511 267f e13f cb70 42c4 4a01 cf3f
000000d0: 8491 8500 e423 d5bf 84af 3944 8fcc c33f
000000e0: b446 b464 80cb d33f 69c2 ddce bc5a e6bf
000000f0: 1dfd b27a 66ee c03f 57ea 6a73 bea4 e6bf
00000100: 9b12 2aff 6921 e33f 3cd9 f96d d03c e13f
00000110: 69f4 5d8e ee21 dcbf eb7f 117a c79f d93f
00000120: 14ca 712b e5c9 e43f 9c73 5cc3 b00f c63f
00000130: b43b 3643 7960 c9bf b204 60ac 2ee0 c3bf
00000140: a134 c7ba d79e f7bf 2997 6545 a7d0 f33f
00000150: 3b59 8df6 d06f dabf 0000 0000 0000 0000
00000160: 5a2e 11b7 5212 e03f 27a1 f2f2 6f1e d7bf
00000170: 5b7c 22eb 9239 e8bf 8c79 628b 9353 bdbf
00000180: 8a53 950e 687c bf3f e66c 0b9c 6b50 d4bf
00000190: 7535 5023 06a5 e1bf 9961 c303 6cd6 b3bf
000001a0: cc2c 1964 678d f2bf 292f 9f19 c3b9 d9bf
000001b0: 6ddc 45b8 7eb4 dbbf 0000 0000 0000 0000
000001c0: 6cc6 4e69 b810 da3f ba85 48c8 15d0 f0bf
000001d0: dc01 5332 d050 e63f 837e eaec 3269 c03f
000001e0: 88ca 2252 bb10 c53f 75e2 49ed e79e debf
000001f0: 4e45 f3eb c7dc dfbf 8342 c3a3 70e4 e7bf
00000200: 5c46 c199 4252 da3f 48de f9b5 1ce1 d5bf
00000210: ea08 77fb a505 a5bf 5ca4 4a60 0bcb ba3f
00000220: 7059 d193 6e0a b63f fab5 0b70 4085 a53f
00000230: 2f8e 8bdf 549d d9bf 8aef 768e 1cc5 d8bf
00000240: 7cfb 9abf a257 c23f ca52 fdaf c795 dd3f
00000250: d7c0 3da8 de57 bb3f 3670 82d1 4125 e43f
00000260: 9909 5168 204f 9abf debf 61cd 384f c8bf
00000270: cc68 5c50 b096 db3f afca 98f9 b29a ecbf
00000280: 6063 60f1 cd07 de3f 69dd 6128 5afa d1bf
00000290: 9170 f318 caa0 c9bf 792f 4f20 d98b bcbf
000002a0: 0000 0000 0000 0000 a97e 9dfc 219c f0bf
000002b0: eb7c ff9c 8ca0 d2bf 6478 dc89 3e6c abbf
000002c0: cfc8 af63 5d6c cfbf 3687 7748 bd4f edbf
000002d0: 6311 4fa7 be68 e4bf f87d 1d40 bd0e d9bf
000002e0: bb2c ffe0 e593 d1bf f48b 3f19 d7b1 d73f
000002f0: 6bda a0ee 781e efbf d337 d67a 279e d8bf
00000300: 0e2d f89a 2508 a0bf e34f 3e51 495a cebf
00000310: f592 4851 25c5 d0bf 2c2a e908 a871 e1bf
00000320: a5a0 1c0c 4c94 d3bf f9e1 9589 9acf bebf
00000330: 7aee c255 3d0a fbbf b442 fcff 08fb e1bf
00000340: 3514 ce17 3d4e d93f 1e58 e148 e99c 0440
00000350: 0e72 c0d7 257c d5bf e6bf 0f6a 551e dd3f
00000360: 4006 5ba7 6071 b63f 646d 8b68 cf53 e4bf
00000370: 8602 27a5 f985 c0bf 6b27 6f6d 92ed d7bf
00000380: 42c1 0da9 b497 a13f 5451 0fbf 9fe2 e73f
00000390: a023 dee1 a2d5 703f b705 41e9 10b6 d6bf
000003a0: cf16 1c9a 602a f03f db5f e96a 949d b2bf
000003b0: 4f94 7c6a 5504 e63f c230 c12e 2e1f 8bbf
000003c0: 4f14 9c05 ccab b3bf 61f5 1d6e ac5f c43f
000003d0: edd1 d6e0 e0bc e23f 42dd a9d6 4065 d6bf
000003e0: 8075 1d1e 0a05 af3f 7844 5f53 4845 cbbf
000003f0: 8b72 a11b adb4 ddbf 7f11 23ae a1db f03f
00000400: 9f4c a318 8360 d8bf 037a bd64 6cb1 debf
00000410: 26b3 d69e bc43 843f 5f61 6cb6 745e f1bf
00000420: 2493 8b26 8c6c e0bf acf8 39c2 1e54 e5bf
00000430: fef6 b41d 821d e73f d144 5a0f 7fc2 ed3f
00000440: a25c 00d2 d108 d03f db8d 9ec8 74b0 c43f
00000450: 565b 1277 0f58 f13f 755a f7a6 4bd2 f93f
00000460: 05ba b2cd 8024 e4bf c1d7 d5e7 aa6c dcbf
00000470: dfe1 cc20 58a6 b8bf 245f a866 c755 da3f
00000480: 6df4 fcc2 3b70 f7bf b6d0 3468 e402 bf3f
00000490: f69c 5381 9e5b d5bf 1c85 f043 ead6 de3f
000004a0: 0000 0000 0000 0000 27e1 2f22 bbe4 acbf
000004b0: f3ae bd57 e2b0 d33f 0ac0 c219 3d91 b8bf
000004c0: 82db f3ba 81db e63f 11f9 111a 84f3 bcbf
000004d0: 572e ed17 f5a4 d5bf fce1 4635 b949 df3f
000004e0: 8f8e 2332 8679 cd3f 8518 8e3c bc02 b0bf
000004f0: 7799 4992 5747 d2bf ba7b 2995 8f85 c73f
00000500: ad3e dc83 919c e2bf 984e 3b10 1b08 b7bf
00000510: 969e 9e15 bf41 eebf 5596 7a68 70e4 923f
00000520: eab8 7db2 2c1b e03f 3577 0962 45aa f73f
00000530: 63fa 0856 7e20 fe3f cf9a a614 9611 f8bf
00000540: 8836 0ae2 b334 cb3f ebdb fbdf 5e91 c2bf
00000550: 826e b1fa bf21 dcbf 490f ee5e 1ac1 f93f
00000560: fbd6 8caf fd03 e33f 5856 17fe 57b5 cb3f
00000570: 9dda 47ac 10d1 d5bf d284 ed1d 03d1 eb3f
00000580: eb5f 84b9 56dd c13f d573 6aaf 0756 da3f
00000590: e56a b355 b81d e2bf 0a2d 3f81 adeb 02c0
000005a0: 462a 112c dc7d c8bf d550 ae3d e981 d53f
000005b0: a7d6 7ab5 e46a e9bf da3e 9aa4 f74d efbf
000005c0: c27b a0e7 bc72 00c0 847b baef b022 e3bf
000005d0: 5597 0518 aa1e dabf 7353 29a8 6d69 aa3f
000005e0: 9a19 5c0b c09d e73f 36cf 18b6 982d f1bf
000005f0: a809 1a79 5f98 dabf 89a7 08ed 246c b83f
00000600: b821 6ca4 d7a3 bbbf 4dbb 847a fb1b 953f
00000610: 7e8a 5f10 75db e7bf 8f88 5d7b 57a2 febf
00000620: 6056 4e7b fe2d e9bf 0dc1 23e4 611f e2bf
00000630: 79ed e808 bd50 ed3f d7ca 5379 b15b c3bf
00000640: 7235 d57e 1349 d4bf dc74 e734 e698 e0bf
00000650: e231 539b f545 febf 8ebb f8a0 2a19 cebf
00000660: ea08 c280 e9cd c53f 1e06 1673 f529 d9bf
00000670: d08d 614e 468e c93f 07bb 2abb bc53 d33f
00000680: e3ca 65f9 a241 a93f 6b67 221e bbac d2bf
00000690: af82 62db 5f5e e5bf b433 853b 6836 f03f
000006a0: dd4f fd7d 8d67 e33f e162 5139 2e79 d23f
000006b0: 99cd 3d0e bfba d03f 5861 17a4 57a0 e53f
000006c0: 128b 3a70 77fb dfbf 7082 2f7f b0ea d23f
000006d0: d602 79d0 07a0 c33f 938b fc90 7759 e53f
000006e0: ea3a 8030 0fb0 d83f 1640 b115 da20 d8bf
000006f0: 82f9 72a3 9b23 e13f 45d5 f3bf 413f b63f
00000700: 3133 8dbc 9b8e f53f 5ac4 231a a729 babf
00000710: 0784 bcf7 8930 e1bf 543a 3bbb 214c e03f
00000720: a515 3e3b c95e f03f 013b d5c8 42a3 d4bf
00000730: 982e 4adc ada6 c63f 4e97 d992 7819 e7bf
00000740: 5b93 dd51 9a85 e9bf 9a45 e1fb 56f4 df3f
00000750: ba0c fec5 b940 f53f a011 347f 148c c6bf
00000760: 6a70 ea55 8c6e f9bf 1cdb 57d3 1fa1 f1bf
00000770: 05ac 6197 6564 ed3f 2598 8efb 3d71 8abf
00000780: 0b07 69d6 3886 f23f ca56 0979 74d8 dabf
00000790: dcf0 fb35 4ad0 9b3f 5219 b280 03bb c43f
000007a0: c3d0 2ad7 9d34 dd3f a448 dbdb 0791 e63f
000007b0: bbf3 6bd0 291f f43f 3e0d c435 6c97 af3f
000007c0: 65fe e4c8 0f33 e0bf e69c 1f30 a689 f03f
000007d0: da01 5785 e887 c23f bc67 e2d3 3c8d 8dbf
000007e0: c05d e1d5 2895 dd3f 41ee 94a1 0c23 b83f
000007f0: ae77 53b0 b7d0 c5bf 2108 5a3c 6c1b d6bf
